CameraParams.npz (npz, 1898 bytes, 4 tensors)

cameraMatrix f8 [3, 3]
000000 9a 74 89 9e 7a 4f 90 40 00 00 00 00 00 00 00 00
       1043.8697453954142 0.0
000010 20 45 49 53 98 b6 84 40 00 00 00 00 00 00 00 00
       662.8243776058407 0.0
000020 35 33 3e b8 d8 56 90 40 4d 48 0c 68 54 34 77 40
       1045.7116403311495 371.2706070403845
000030 00 00 00 00 00 00 00 00 00 00 00 00 00 00 00 00
       0.0 0.0
000040 00 00 00 00 00 00 f0 3f
       1.0

dist f8 [1, 5]
000000 41 d2 be fa ff 8c 91 bf aa ba 87 74 fd d2 d4 bf
       -0.0171394345085949 -0.32537781124021115
000010 5b 23 5e 15 ee 1d 67 3f b4 c9 9f af bd ef 61 3f
       0.0028218889301040834 0.0021895127110777794
000020 9d 67 f8 03 2c d4 e2 3f
       0.5883998944802787

rvecs f8 [22, 3, 1]
000000 28 06 e2 ed 5f 53 d9 bf 6d 02 b8 0b a0 3a dd 3f
       -0.39571378927948553 0.45670319694912714
000010 43 8b 9d 0d ea 9f f8 bf e3 a4 7f 11 4e f8 e5 bf
       -1.5390415698863797 -0.6865606633920404
000020 ed 17 c0 d4 80 6c e2 3f da f7 49 53 68 db f7 bf
       0.5757450251846855 -1.4910662892793796
000030 f1 87 61 1d 28 43 95 bf e5 00 d1 b1 66 e8 a7 3f
       -0.020763994973442782 0.046694955068689294
000040 b0 72 c6 f2 bc 0b f9 bf 16 19 a2 ff 4a 40 f1 3f
       -1.565365742054535 1.0781965242072764
000050 1a b8 6c fa 11 4e eb bf 57 83 92 c6 7e f7 fd 3f
       -0.8532800570590127 1.8729236370783917
000060 ae 13 66 9a 8b 81 c5 3f 07 e4 03 6c 38 24 b0 bf
       0.16801590956688756 -0.06305267941560554
000070 9b 8b a9 d1 13 b8 f9 bf a2 4d 87 93 29 1a c5 bf
       -1.6074407758648934 -0.164860913310446
000080 c5 ba 90 c6 16 7b e3 3f 28 4e b7 52 6a 1f fd bf
       0.6087755087117662 -1.8201697569937867
000090 a5 b7 2d ba 57 13 aa bf b0 ac 1c 93 4b 6f bd 3f
       -0.05092882297218119 0.11497948018647963
0000a0 ac f4 de a7 c5 00 f9 bf ac 2c 62 a7 37 96 d4 bf
       -1.562688499208245 -0.3216685423473773
0000b0 78 2e c9 27 1f fa e9 3f 75 41 75 21 3a d6 fc bf
       0.8117824341838533 -1.8023015315012263
0000c0 5a 80 4b 5a d1 61 b7 3f d5 ed 2e c8 96 99 f0 3f
       0.09133633093324658 1.037497312513428
0000d0 ba ce f8 83 27 69 fa bf 85 ec a9 98 98 5a e5 bf
       -1.650672450556995 -0.6673090917314687
0000e0 90 f0 58 96 07 80 f1 3f 13 26 ea 52 6d 32 00 c0
       1.0937572358080025 -2.0246225812632104
0000f0 d1 23 d6 b9 49 24 aa bf 10 d1 68 6e e3 07 bc 3f
       -0.051058105406873396 0.1094953674845025
000100 2f f3 17 8f 27 d5 f9 bf 39 84 76 0c 90 23 e0 bf
       -1.61453967948837 -0.504341148702344
000110 df 5b 26 ff 02 02 ec 3f 26 aa c7 9a 72 5d fc bf
       0.875245569552927 -1.7728143735972792
000120 45 9b f3 38 b6 31 bf 3f 0e 27 5f 4b 43 73 b0 3f
       0.1218522919694865 0.06425877180222647
000130 dc 04 67 e3 4f aa f8 bf 87 90 c5 ba ef cf b8 3f
       -1.5415800936610173 0.09692285833222246
000140 14 42 a4 3a 06 7f a3 bf ca ff 52 f4 79 49 f9 bf
       -0.038078493746187686 -1.580438570395915
000150 49 34 0f 2d a2 41 e1 bf fe aa 77 98 75 38 e1 3f
       -0.539261901861786 0.5381420114402713
000160 92 a0 5d f2 7b 93 f8 bf d1 0c 83 92 2f e1 c4 3f
       -1.5360068766986257 0.1631221261396605
000170 c0 6f 8c f2 ea 2a b2 3f 04 79 86 d4 78 99 f8 bf
       0.07096737310024448 -1.5374687482613476
000180 e4 3a 9d 2e b0 be a0 3f bd e1 29 c3 24 d6 c1 3f
       0.03270483559628248 0.13934764413330739
000190 36 80 b5 fa a9 09 f9 bf 52 b0 e8 43 29 c3 a2 3f
       -1.5648593705482319 0.0366452117344528
0001a0 32 52 eb 0f 7d 74 f0 3f 83 6d 7b 12 d7 dd fd bf
       1.0284395810932776 -1.8666601869543633
0001b0 fa 09 d6 fa ba bd cb bf 4c 08 61 ce 1a 18 d7 3f
       -0.2167276119981379 0.36084623483850886
0001c0 87 cc a1 96 c1 a4 f7 bf 97 e5 a4 b2 e0 c8 a4 3f
       -1.4777236827910956 0.04059507542337853
0001d0 53 19 2a 14 7c cd aa 3f 0b f2 1c 52 61 6f f9 bf
       0.052348973714333134 -1.589692421678708
0001e0 6f 8c 42 d4 a8 04 e4 bf 06 be 06 ba 13 38 e6 3f
       -0.6255687852575543 0.6943453439070602
0001f0 51 22 c2 9e 6c e6 f5 bf b8 6d c0 3e e6 2a d1 bf
       -1.3687559319970612 -0.2682433712777441
000200 c4 bb 57 a0 94 d0 d3 3f e0 ae e1 04 10 8e f9 bf
       0.30960574778049144 -1.5971832457243451

tvecs f8 [22, 3, 1]
000000 bc 87 79 74 0b 3d 07 40 3e 92 7f 96 78 bf 11 c0
       2.904807004889305 -4.436983443771679
000010 37 71 ac d3 a3 d4 45 40 00 84 24 1a 2a a5 33 40
       43.66124959869415 19.645173677363346
000020 79 21 82 4a 9b 45 2d 40 db 59 4d d4 ec ea 46 40
       14.635950401673414 45.83535245682625
000030 e0 51 67 5c c2 ed 33 40 a1 a5 54 c9 2f 05 17 c0
       19.928746962761466 -5.7550651033319875
000040 62 34 35 b4 24 19 48 40 cf eb 29 19 a1 d0 32 40
       48.19643261525995 18.814958164915705
000050 a8 7f 57 c6 99 f0 23 c0 f4 a5 b0 fe 2a be 43 40
       -9.969923208409298 39.48568709969905
000060 a0 89 f7 9a ff 0b f5 bf 7e b5 68 eb 71 87 13 c0
       -1.3154293111225357 -4.8822705061587595
000070 03 c5 6b d7 6d 65 47 40 9a fc 38 64 27 d9 2e c0
       46.792414596197 -15.424128658253085
000080 22 a0 3e 2d 90 d2 2d 40 27 71 f4 d4 b7 3c 44 40
       14.911256231207577 40.47436010299344
000090 43 7b 70 fb 39 a9 33 40 fc 12 7e 1b c2 7a 18 c0
       19.66104098793154 -6.119881085939365
0000a0 54 22 19 87 ff a1 48 40 d8 80 82 63 95 88 dd 3f
       49.26561058737994 0.46146139829398924
0000b0 bf 41 e7 39 91 a4 28 40 dd 4d 2b 0a b9 82 45 40
       12.321420487861245 43.02127196421109
0000c0 de c3 35 86 48 86 e1 3f 3a 41 48 f2 01 b7 10 c0
       0.5476420041360333 -4.178718362484057
0000d0 6b e5 4d 57 09 ed 44 40 71 c2 a3 49 4c 47 33 40
       41.851847565684544 19.278507807236057
0000e0 dd ff fe 73 04 50 05 c0 4f 6c 6f 27 ec b9 46 40
       -2.664070993632761 45.45251934948521
0000f0 8d fc 3f e7 3a 1b 36 40 fe ed af 84 65 25 31 40
       22.106367543336592 17.146080296470238
000100 18 ee 39 02 a7 55 48 40 e4 d2 28 83 36 ed 30 40
       48.66915920094124 16.92661304232287
000110 5e 92 01 9c b5 5f 28 40 d3 fe f9 cd 30 f1 45 40
       12.186932444755424 43.88430189806754
000120 bd d4 17 c3 76 13 37 c0 f2 d0 37 8a 13 a6 0b 40
       -23.076030915563695 3.456091956928611
000130 83 ab 81 61 04 91 46 40 e7 e8 5d a5 2b 4e 36 c0
       45.13294619399587 -22.30535348456115
000140 1e 99 91 84 1e d9 2e 40 1d 74 a1 15 76 3b 46 40
       15.424060957692344 44.46454115279651
000150 ec 30 ca fb 69 10 0c 40 fb 29 28 3d 0e 1c 2c 40
       3.5080146475867107 14.054796134140807
000160 08 4b dc 64 64 bc 46 40 98 82 8c af 1d ae 37 c0
       45.47181378132342 -23.680140468410713
000170 68 b0 d8 12 56 e4 14 c0 c5 eb 55 69 19 59 46 40
       -5.22298459479871 44.6960879964386
000180 50 f0 bf 92 b7 c2 f7 bf c7 39 04 30 81 2d 14 40
       -1.485038350335362 5.044438123948971
000190 31 25 33 65 b6 d0 47 40 25 45 2e d0 9c ee 00 40
       47.63056626317337 2.11651003495412
0001a0 60 10 fa b9 2a 10 0e 40 77 be 76 2c ba c6 45 40
       3.757893994277808 43.552556570034476
0001b0 37 0c 91 78 53 2f 34 c0 19 d1 6a 2f b1 f4 0a c0
       -20.184867415821113 -3.3694785789940735
0001c0 ce 34 a9 31 78 c3 44 40 c3 69 01 a0 0f 63 f0 bf
       41.527105529423 -1.0241848230567576
0001d0 e7 ca 10 73 f1 be 30 40 90 7d ed 2c d4 53 48 40
       16.74587172660804 48.65491258236136
0001e0 4d 74 88 d9 2e 2c 31 40 73 2a 42 9c ed 3f 11 c0
       17.172589870275534 -4.312429849184457
0001f0 8d 02 d5 67 87 06 47 40 e0 5e a6 0e 12 75 32 c0
       46.05100725079419 -18.457306781404327
000200 08 1c ca 28 15 98 2e 40 57 1b 08 99 2f 6d 46 40
       15.297036432906694 44.8530150689682
