camera_calibration/CameraParams.npz (npz, 1850 bytes, 4 tensors)

cameraMatrix f8 [3, 3]
00000000: 386f 787e 854c 9040 0000 0000 0000 0000
00000010: 0e56 51d5 dbf1 8440 0000 0000 0000 0000
00000020: 5b2b d55f 5b52 9040 75d6 cedd 9277 7640
00000030: 0000 0000 0000 0000 0000 0000 0000 0000
00000040: 0000 0000 0000 f03f
1043.1303652589686 0.0 670.2323404650103 0.0 1044.5892327602112 359.4733560638045 0.0 0.0
1.0

dist f8 [1, 5]
00000000: 518b fbab 654c 90bf 8c03 a866 7bb4 d3bf
00000010: 5e77 766d 29bf 31bf f3d7 7c99 2c7b 743f
00000020: 90eb 0a72 3863 e13f
-0.015916432020172625 -0.30789074921636295 -0.0002707935468267887 0.005000280587230665 0.543361876239361

rvecs f8 [21, 3, 1]
00000000: 9562 8f1b 8a47 d9bf dc14 518f 6f72 dc3f
00000010: 0d53 f0e6 26b3 f8bf 5c73 22fc d94e e6bf
00000020: 278f c1ba 2735 e23f e2ae 4267 c1e1 f7bf
00000030: d05c 6eba eaf0 96bf 9957 d318 c778 9a3f
00000040: 40fe 372e ea04 f9bf 0492 dc70 ab22 f13f
00000050: 69cc e158 3af7 eabf d0e9 291d 941b fe3f
00000060: 1f24 692c b8b3 c43f 1eca b298 42de b4bf
00000070: fd8c 3901 f2b5 f9bf 0e4a bb38 5d16 c5bf
00000080: e69e afe3 faeb e23f b979 7539 e833 fdbf
00000090: ae54 d151 a3b9 d4bf 55f9 6dd5 8e72 e93f
000000a0: 6c5b 06e8 80e9 fcbf 3a7a 02e1 1127 b73f
000000b0: 73cb 40e0 8f63 f03f 4b6f 56ab 957a fabf
000000c0: 118a a4d4 8d7c e5bf 7aaf a5ac 6f52 f13f
000000d0: 914e 118e 483a 00c0 1138 8546 feb4 adbf
000000e0: 5e79 8b62 6d9f b63f 4dc0 4309 60c1 f9bf
000000f0: b712 cb9e 4e69 e0bf 13c7 afda d57d eb3f
00000100: 2e0f 28ad 5c66 fcbf 20f3 8451 8db1 be3f
00000110: 5ecb c7f6 ab6b a53f 29ee 1078 76b7 f8bf
00000120: a96f f6c5 6029 b83f 7832 adae 8d65 acbf
00000130: c486 e0e9 8b4c f9bf 6f15 a8ee 3379 e1bf
00000140: 7cf3 1434 40be e03f 9503 d3ae 5ba1 f8bf
00000150: 0894 db03 24eb c43f f689 579c dff9 a73f
00000160: 5d4c 502a f2ab f8bf 5d3c ad01 c5a3 9d3f
00000170: ff42 fd80 d3b2 bf3f 8bfb 6b64 b50a f9bf
00000180: 5c6a 4ffb 5d74 a23f c338 119b e033 f03f
00000190: da42 47fa beee fdbf 293e 85be 9f0b ccbf
000001a0: 4083 c1f3 23f8 d53f c159 ed31 c6bf f7bf
000001b0: f693 eac0 9104 a43f 3b4f ad51 6dfd 9f3f
000001c0: d0bf 2069 0768 f9bf 2a1a 64ed 5b03 e4bf
000001d0: dbdf 2445 ab07 e63f e6a3 0cc6 4bfd f5bf
000001e0: a777 302d 5c60 d1bf 72c4 98f2 16ac d23f
000001f0: db96 5a45 7b9f f9bf
-0.39499142352500743 0.44448460574888116 -1.5437382718129726 -0.697125427675569 0.5689886710719961 -1.4926160844433345 -0.02240340006718783 0.025851355447990085
-1.5636998944682006 1.0709642800003403 -0.8426791892983491 1.881733049317166 0.16173460167399953 -0.08151642063129613 -1.606920246872334 -0.16474499960038752
0.5913061568253084 -1.8251726383674465 -0.32383044233331304 0.7952341240450475 -1.8070077002973575 0.09043990844154673 1.0243071327101603 -1.6549278920055766
-0.6714543488672594 1.0826260322600931 -2.0284587000877043 -0.058021494015164994 0.08837016731147204 -1.609710727872897 -0.5128548718863247 0.8591107627127904
-1.7749907268452705 0.11989672889917502 0.04183709514099719 -1.5447907152255402 0.09438137848923013 -0.055462291310139855 -1.5811881194899096 -0.5460452710400839
0.5232239739631122 -1.5393940762589626 0.1634259241901932 0.046828258356772 -1.5419789936902568 0.028945043780648983 0.12382242106583517 -1.5651143954016529
0.03604406063796681 1.0126653725924804 -1.8707875992296779 -0.21910473635442543 0.34327029041564927 -1.484319872882779 0.03909736137328672 0.031240184888999805
-1.5878976923522607 -0.6254100452941362 0.6884361601323649 -1.374339841490149 -0.27150635159511655 0.2917535180195677 -1.601435919679196

tvecs f8 [21, 3, 1]
00000000: 7a6d f7ec e7c9 0440 8a96 60b2 ac9b 0fc0
00000010: 2088 90e3 00de 4540 3597 efe8 eb3f 3340
00000020: 8eff 9155 5b5d 2e40 4854 7717 b6e3 4640
00000030: 1ea8 0509 2c8a 3340 e335 6a1f 96b0 14c0
00000040: df89 9e38 c12a 4840 4706 d6dd aa87 3240
00000050: 8153 3d82 c6ff 22c0 637c 4ef7 f6e0 4340
00000060: 6d28 5883 dd5f fabf 1c7f c4b1 6966 11c0
00000070: fa51 3465 ab5f 4740 0f78 0379 857a 2fc0
00000080: 1c86 3803 cfcf 2e40 150d 8499 a61a 4440
00000090: f4be d69c 6273 c23f 6607 0d9c 1aa3 2940
000000a0: c778 8c1b 9471 4540 8355 8871 a302 d03f
000000b0: ca7e e67c cfa6 0dc0 b56c 5e89 9deb 4440
000000c0: 6b8d c5e2 91ed 3240 239a d717 e9f9 00c0
000000d0: 5c42 5520 eaca 4640 47a9 30a6 a7b1 3540
000000e0: 2d4b e5cd 2ac0 3140 46e5 57f7 af52 4840
000000f0: b5b5 d325 c197 3040 a4a1 e92e 3176 2940
00000100: 650a 7734 c9f5 4540 5ee6 c670 ce6b 37c0
00000110: de97 c98f 700d 1040 471b 3f06 1f73 4640
00000120: a378 82cc 7fa6 36c0 5aae 925f 34f3 2f40
00000130: a078 82e8 4512 4640 59b1 d996 f154 0940
00000140: 61c6 775f 6826 2d40 a738 638f dda8 4640
00000150: efd1 ba1e 2208 38c0 ed0d 79c1 6da7 12c0
00000160: ae3d 1a69 d545 4640 3f4d 041a 7c32 fdbf
00000170: 24ec c0f4 8c53 1640 ebd1 7618 36c2 4740
00000180: 2abd 69d3 b0e3 fc3f 26f7 4124 1b01 1140
00000190: c06e de5f 23bf 4540 5a8e e146 5583 34c0
000001a0: 4024 89aa bde2 06c0 5874 531b 53b3 4440
000001b0: 7187 11b6 6839 f6bf 7a35 68e0 d54d 3140
000001c0: a5e5 e83a 5338 4840 8e2b 32c7 2edd 3040
000001d0: da50 e955 8e3c 0ec0 62a7 f82c 3f25 4740
000001e0: 986c f8a9 8acc 32c0 45b0 53db d5ad 2f40
000001f0: 04b9 11fb e744 4640
2.5985868943222927 -3.951012986729272 43.73440212781156 19.24969344949132 15.182337450096181 45.77899449659941 19.539734424477608 -5.172447672708105
48.33402164212361 18.529950966598587 -9.499561376558406 39.75753680546111 -1.6484046106948214 -4.350012567156025 46.74741807036112 -15.739299565957507
15.40587625565518 40.20820921848114 0.14414627702853233 12.818562389936869 42.88733238562559 0.2501610382763248 -3.7064504392472815 41.84074513540819
18.928007291060037 -2.122026621119646 45.58526996768043 21.693964373474298 17.750653141479393 48.64599506179597 16.592790950953447 12.730843988437137
43.92020278751878 -23.421118782577075 4.013124701194071 44.89938428956389 -22.650387555936174 15.975008951812175 44.142758430201184 3.1664764199432907
14.575015052195512 45.31926147789755 -24.0317706304649 -4.663504622472357 44.545575273335416 -1.8248253837853807 5.581592392230082 47.51727586557157
1.8055885561296443 4.251080099607668 43.49326704369514 -20.51301997191181 -2.860713321981649 41.40097371649671 -1.389015876011822 17.304044747773766
48.44003998157431 16.86399502730233 -3.7795683585955944 46.29099046841908 -18.798990843916357 15.839522222486389 44.538329490331336
